…
on='Ore classification', saveName='/home/zhangyinan/ore/ore_classification/work_dirs/dual_tower', num_epochs=100, base_lr=0.0001, init_lr=1e-07, batch_size=32, weight_decay=0.0005, nclass=2, gpu='0', seed=3407, num_warmup=5, in_dim=1, lr_way='cos', log_interval=100, eval_interval=1, json_path='/home/zhangyinan/ore/data/dataset/train_val.json', modelName='dual_tower', pretrained='/home/zhangyinan/ore/ore_classification/pretrained/model.pt', hid_dim=128, savePath='/home/zhangyinan/ore/ore_classification/work_dirs/dual_tower')
dual_tower(
  (model_low): LeNet_5(
    (layer1): Sequential(
      (0): Conv2d(1, 6, kernel_size=(5, 5), stride=(1, 1), padding=(2, 2))
      (1): ReLU()
      (2): MaxPool2d(kernel_size=2, stride=2, padding=0, dilation=1, ceil_mode=False)
      (3): Conv2d(6, 16, kernel_size=(5, 5), stride=(1, 1))
      (4): ReLU()
      (5): MaxPool2d(kernel_size=2, stride=2, padding=0, dilation=1, ceil_mode=False)
    )
    (layer2): Sequential(
      (0): Linear(in_features=400, out_features=120, bias=True)
      (1): ReLU()
      (2): Linear(in_features=120, out_features=84, bias=True)
      (3): ReLU()
      (4): Linear(in_features=84, out_features=2, bias=True)
    )
  )
  (model_high): LeNet_5(
    (layer1): Sequential(
      (0): Conv2d(1, 6, kernel_size=(5, 5), stride=(1, 1), padding=(2, 2))
      (1): ReLU()
      (2): MaxPool2d(kernel_size=2, stride=2, padding=0, dilation=1, ceil_mode=False)
      (3): Conv2d(6, 16, kernel_size=(5, 5), stride=(1, 1))
      (4): ReLU()
      (5): MaxPool2d(kernel_size=2, stride=2, padding=0, dilation=1, ceil_mode=False)
    )
    (layer2): Sequential(
      (0): Linear(in_features=400, out_features=120, bias=True)
      (1): ReLU()
      (2): Linear(in_features=120, out_features=84, bias=True)
      (3): ReLU()
      (4): Linear(in_features=84, out_features=2, bias=True)
    )
  )
)
Total trainable pytorch params:0.122052 MB
Total pytorch params:0.122052 MB
----------
Train Epoch 0/99
Epoch 0/99, Batch 0/361,Batch Loss=0.6950
Epoch 0/99, Batch 100/361,Batch Loss=0.6918
Epoch 0/99, Batch 200/361,Batch Loss=0.6981
Epoch 0/99, Batch 300/361,Batch Loss=0.6954
Epoch 0/99, AUC=0.4969, Accuracy=0.4974, Precision=0.4979, Recall=0.4969, F1=0.4559
…
